Layer (type)                    Output Shape         Param #     Connected to                     
==================================================================================================
background (InputLayer)         (None, 6144)         0                                            
__________________________________________________________________________________________________
foreground (InputLayer)         (None, 6144)         0                                            
__________________________________________________________________________________________________
dense_1 (Dense)                 (None, 512)          3146240     background[0][0]                 
__________________________________________________________________________________________________
dense_3 (Dense)                 (None, 512)          3146240     foreground[0][0]                 
__________________________________________________________________________________________________
dense_2 (Dense)                 (None, 256)          131328      dense_1[0][0]                    
__________________________________________________________________________________________________
dense_4 (Dense)                 (None, 256)          131328      dense_3[0][0]                    
__________________________________________________________________________________________________
concatenate_1 (Concatenate)     (None, 512)          0           dense_2[0][0]                    
                                                                 dense_4[0][0]                    
__________________________________________________________________________________________________
dense_5 (Dense)                 (None, 256)          131328      concatenate_1[0][0]              
__________________________________________________________________________________________________
dense_6 (Dense)                 (None, 15)           3855        dense_5[0][0]                    
==================================================================================================
Total params: 6,690,319
Trainable params: 6,690,319
Non-trainable params: 0
__________________________________________________________________________________________________
None
Train on 3510 samples, validate on 1170 samples
Epoch 1/20
3510/3510 [==============================] - 4s 1ms/step - loss: 0.5098 - accuracy: 0.8407 - val_loss: 0.2947 - val_accuracy: 0.9205
…
